…
    quaternion = quaternion[inds]
    
    # Step 3: Normalization Check
    n = (quaternion * quaternion).sum()
    
    # Step 4: Identity Matrix Return for near-zero quaternions
    if n < 1e-8:
        return torch.eye(3, dtype=quaternion.dtype, device=quaternion.device)
        
    # Step 5: Normalization of Quaternion
    quaternion = quaternion * torch.sqrt(2.0 / n)
    
    # Step 6: Outer Product Calculation
    q_outer = torch.outer(quaternion, quaternion)
    
    # Step 7: Rotation Matrix Construction
    R = torch.zeros(3, 3, dtype=quaternion.dtype, device=quaternion.device)
    R[0, 0] = 1.0 - q_outer[2, 2] - q_outer[3, 3]
    R[0, 1] = q_outer[1, 2] - q_outer[0, 3]
    R[0, 2] = q_outer[1, 3] + q_outer[0, 2]
    R[1, 0] = q_outer[1, 2] + q_outer[0, 3]
    R[1, 1] = 1.0 - q_outer[1, 1] - q_outer[3, 3]
    R[1, 2] = q_outer[2, 3] - q_outer[0, 1]
    R[2, 0] = q_outer[1, 3] - q_outer[0, 2]
    R[2, 1] = q_outer[2, 3] + q_outer[0, 1]
    R[2, 2] = 1.0 - q_outer[1, 1] - q_outer[2, 2]
    
    return R
```"
pytorch_19,pytorch,True,200,200,1589,,1.0,completed,dscodebench-pytorch_19-17c3cf54,,,23373,dscodebench,pytorch_19,pytorch,,,"

```python
import torch

def farthest_point_sampling(kpts: torch.Tensor, num_points: int):
    B, N, C = kpts.shape
    device = kpts.device
    
    indices = torch.zeros((B, num_points), dtype=torch.long, device=device)
    distances = torch.full((B, N), float('inf'), device=device, dtype=kpts.dtype)
…
    model.add(Activation('softmax'))
    
    model.compile(loss='categorical_crossentropy', optimizer='adam', metrics=['accuracy'])
    return model
```"
keras_50,keras,False,0,0,16691,,0.0,completed,dscodebench-keras_50-47f91f4b,,,35045,dscodebench,keras_50,keras,"parse evaluator output: expected value at line 1 column 1; stdout=Model: ""sequential""
┏━━━━━━━━━━━━━━━━━━━━━━━━━━━━━━━━━┳━━━━━━━━━━━━━━━━━━━━━━━━┳━━━━━━━━━━━━━━━┓
┃ Layer (type)                    ┃ Output Shape           ┃       Param # ┃
┡━━━━━━━━━━━━━━━━━━━━━━━━━━━━━━━━━╇━━━━━━━━━━━━━━━━━━━━━━━━╇━━━━━━━━━━━━━━━┩
│ dense (Dense)                   │ (None, 100)            │           900 │
├─────────────────────────────────┼────────────────────────┼───────────────┤
│ dense_1 (Dense)                 │ (None, 100)            │        10,100 │
├─────────────────────────────────┼────────────────────────┼───────────────┤
│ flatten (Flatten)               │ (None, 100)            │             0 │
├─────────────────────────────────┼────────────────────────┼───────────────┤
│ dense_2 (Dense)                 │ (None, 1)              │           101 │
└─────────────────────────────────┴────────────────────────┴───────────────┘
 Total params: 11,101 (43.36 KB)
 Trainable params: 11,101 (43.36 KB)
 Non-trainable params: 0 (0.00 B)
Model: ""sequential_1""
┏━━━━━━━━━━━━━━━━━━━━━━━━━━━━━━━━━┳━━━━━━━━━━━━━━━━━━━━━━━━┳━━━━━━━━━━━━━━━┓
┃ Layer (type)                    ┃ Output Shape           ┃       Param # ┃
┡━━━━━━━━━━━━━━━━━━━━━━━━━━━━━━━━━╇━━━━━━━━━━━━━━━━━━━━━━━━╇━━━━━━━━━━━━━━━┩
│ dense_3 (Dense)                 │ (None, 19, 100)        │           800 │
├─────────────────────────────────┼────────────────────────┼───────────────┤
│ dense_4 (Dense)                 │ (None, 19, 100)        │        10,100 │
├─────────────────────────────────┼────────────────────────┼───────────────┤
│ flatten_1 (Flatten)             │ (None, 1900)           │             0 │
├─────────────────────────────────┼────────────────────────┼───────────────┤
│ dense_5 (Dense)                 │ (None, 1)              │         1,901 │
└─────────────────────────────────┴────────────────────────┴───────────────┘
 Total params: 12,801 (50.00 KB)
 Trainable params: 12,801 (50.00 KB)
 Non-trainable params: 0 (0.00 B)
Model: ""sequential_2""
┏━━━━━━━━━━━━━━━━━━━━━━━━━━━━━━━━━┳━━━━━━━━━━━━━━━━━━━━━━━━┳━━━━━━━━━━━━━━━┓
┃ Layer (type)                    ┃ Output Shape           ┃       Param # ┃
┡━━━━━━━━━━━━━━━━━━━━━━━━━━━━━━━━━╇━━━━━━━━━━━━━━━━━━━━━━━━╇━━━━━━━━━━━━━━━┩
│ dense_6 (Dense)                 │ (None, 100)            │         2,000 │
├─────────────────────────────────┼────────────────────────┼───────────────┤
│ dense_7 (Dense)                 │ (None, 100)            │        10,100 │
├─────────────────────────────────┼────────────────────────┼───────────────┤
│ flatten_2 (Flatten)             │ (None, 100)            │             0 │
├─────────────────────────────────┼────────────────────────┼───────────────┤
│ dense_8 (Dense)                 │ (None, 1)              │           101 │
└─────────────────────────────────┴────────────────────────┴───────────────┘
 Total params: 12,201 (47.66 KB)
 Trainable params: 12,201 (47.66 KB)
 Non-trainable params: 0 (0.00 B)
Model: ""sequential_3""
┏━━━━━━━━━━━━━━━━━━━━━━━━━━━━━━━━━┳━━━━━━━━━━━━━━━━━━━━━━━━┳━━━━━━━━━━━━━━━┓
┃ Layer (type)                    ┃ Output Shape           ┃       Param # ┃
┡━━━━━━━━━━━━━━━━━━━━━━━━━━━━━━━━━╇━━━━━━━━━━━━━━━━━━━━━━━━╇━━━━━━━━━━━━━━━┩
│ dense_9 (Dense)                 │ (None, 2, 100)         │         2,000 │
├─────────────────────────────────┼────────────────────────┼───────────────┤
│ dense_10 (Dense)                │ (None, 2, 100)         │        10,100 │
├─────────────────────────────────┼────────────────────────┼───────────────┤
│ flatten_3 (Flatten)             │ (None, 200)            │             0 │
├─────────────────────────────────┼────────────────────────┼───────────────┤
│ dense_11 (Dense)                │ (None, 1)              │           201 │
└─────────────────────────────────┴────────────────────────┴───────────────┘
 Total params: 12,301 (48.05 KB)
 Trainable params: 12,301 (48.05 KB)
 Non-trainable params: 0 (0.00 B)
Model: ""sequential_4""
┏━━━━━━━━━━━━━━━━━━━━━━━━━━━━━━━━━┳━━━━━━━━━━━━━━━━━━━━━━━━┳━━━━━━━━━━━━━━━┓
┃ Layer (type)                    ┃ Output Shape           ┃       Param # ┃
┡━━━━━━━━━━━━━━━━━━━━━━━━━━━━━━━━━╇━━━━━━━━━━━━━━━━━━━━━━━━╇━━━━━━━━━━━━━━━┩
│ dense_12 (Dense)                │ (None, 9, 19, 100)     │         1,000 │
├─────────────────────────────────┼────────────────────────┼───────────────┤
│ dense_13 (Dense)                │ (None, 9, 19, 100)     │        10,100 │
├─────────────────────────────────┼────────────────────────┼───────────────┤
│ flatten_4 (Flatten)             │ (None, 17100)          │             0 │
├─────────────────────────────────┼────────────────────────┼───────────────┤
│ dense_14 (Dense)                │ (None, 1)              │        17,101 │
└─────────────────────────────────┴────────────────────────┴───────────────┘
 Total params: 28,201 (110.16 KB)
 Trainable params: 28,201 (110.16 KB)
 Non-trainable params: 0 (0.00 B)
Model: ""sequential_5""
┏━━━━━━━━━━━━━━━━━━━━━━━━━━━━━━━━━┳━━━━━━━━━━━━━━━━━━━━━━━━┳━━━━━━━━━━━━━━━┓
┃ Layer (type)                    ┃ Output Shape           ┃       Param # ┃
┡━━━━━━━━━━━━━━━━━━━━━━━━━━━━━━━━━╇━━━━━━━━━━━━━━━━━━━━━━━━╇━━━━━━━━━━━━━━━┩
│ dense_15 (Dense)                │ (None, 17, 19, 100)    │           900 │
├─────────────────────────────────┼────────────────────────┼───────────────┤
│ dense_16 (Dense)                │ (None, 17, 19, 100)    │        10,100 │
├─────────────────────────────────┼────────────────────────┼───────────────┤
│ flatten_5 (Flatten)             │ (None, 32300)          │             0 │
├─────────────────────────────────┼────────────────────────┼───────────────┤
│ dense_17 (Dense)                │ (None, 1)              │        32,301 │
└─────────────────────────────────┴────────────────────────┴───────────────┘
 Total params: 43,301 (169.14 KB)
 Trainable params: 43,301 (169.14 KB)
 Non-trainable params: 0 (0.00 B)
Model: ""sequential_6""
┏━━━━━━━━━━━━━━━━━━━━━━━━━━━━━━━━━┳━━━━━━━━━━━━━━━━━━━━━━━━┳━━━━━━━━━━━━━━━┓
┃ Layer (type)                    ┃ Output Shape           ┃       Param # ┃
┡━━━━━━━━━━━━━━━━━━━━━━━━━━━━━━━━━╇━━━━━━━━━━━━━━━━━━━━━━━━╇━━━━━━━━━━━━━━━┩
│ dense_18 (Dense)                │ (None, 5, 100)         │         1,400 │
├─────────────────────────────────┼────────────────────────┼───────────────┤
│ dense_19 (Dense)                │ (None, 5, 100)         │        10,100 │
├─────────────────────────────────┼────────────────────────┼───────────────┤
│ flatten_6 (Flatten)             │ (None, 500)            │             0 │
├─────────────────────────────────┼────────────────────────┼───────────────┤
│ dense_20 (Dense)                │ (None, 1)              │           501 │
└─────────────────────────────────┴────────────────────────┴───────────────┘
 Total params: 12,001 (46.88 KB)
 Trainable params: 12,001 (46.88 KB)
 Non-trainable params: 0 (0.00 B)
Model: ""sequential_7""
┏━━━━━━━━━━━━━━━━━━━━━━━━━━━━━━━━━┳━━━━━━━━━━━━━━━━━━━━━━━━┳━━━━━━━━━━━━━━━┓
┃ Layer (type)                    ┃ Output Shape           ┃       Param # ┃
┡━━━━━━━━━━━━━━━━━━━━━━━━━━━━━━━━━╇━━━━━━━━━━━━━━━━━━━━━━━━╇━━━━━━━━━━━━━━━┩
│ dense_21 (Dense)                │ (None, 100)            │         1,700 │
├─────────────────────────────────┼────────────────────────┼───────────────┤
│ dense_22 (Dense)                │ (None, 100)            │        10,100 │
├─────────────────────────────────┼────────────────────────┼───────────────┤
│ flatten_7 (Flatten)             │ (None, 100)            │             0 │
├─────────────────────────────────┼────────────────────────┼───────────────┤
│ dense_23 (Dense)                │ (None, 1)              │           101 │
└─────────────────────────────────┴────────────────────────┴───────────────┘
 Total params: 11,901 (46.49 KB)
 Trainable params: 11,901 (46.49 KB)
 Non-trainable params: 0 (0.00 B)
Model: ""sequential_8""
┏━━━━━━━━━━━━━━━━━━━━━━━━━━━━━━━━━┳━━━━━━━━━━━━━━━━━━━━━━━━┳━━━━━━━━━━━━━━━┓
┃ Layer (type)                    ┃ Output Shape           ┃       Param # ┃
┡━━━━━━━━━━━━━━━━━━━━━━━━━━━━━━━━━╇━━━━━━━━━━━━━━━━━━━━━━━━╇━━━━━━━━━━━━━━━┩
│ dense_24 (Dense)                │ (None, 100)            │         1,900 │
├─────────────────────────────────┼────────────────────────┼───────────────┤
│ dense_25 (Dense)                │ (None, 100)            │        10,100 │
├─────────────────────────────────┼────────────────────────┼───────────────┤
│ flatten_8 (Flatten)             │ (None, 100)            │             0 │
├─────────────────────────────────┼────────────────────────┼───────────────┤
│ dense_26 (Dense)                │ (None, 1)              │           101 │
└─────────────────────────────────┴────────────────────────┴───────────────┘
 Total params: 12,101 (47.27 KB)
 Trainable params: 12,101 (47.27 KB)
 Non-trainable params: 0 (0.00 B)
Model: ""sequential_9""
┏━━━━━━━━━━━━━━━━━━━━━━━━━━━━━━━━━┳━━━━━━━━━━━━━━━━━━━━━━━━┳━━━━━━━━━━━━━━━┓
┃ Layer (type)                    ┃ Output Shape           ┃       Param # ┃
┡━━━━━━━━━━━━━━━━━━━━━━━━━━━━━━━━━╇━━━━━━━━━━━━━━━━━━━━━━━━╇━━━━━━━━━━━━━━━┩
│ dense_27 (Dense)                │ (None, 100)            │         1,300 │
├─────────────────────────────────┼────────────────────────┼───────────────┤
│ dense_28 (Dense)                │ (None, 100)            │        10,100 │
├─────────────────────────────────┼────────────────────────┼───────────────┤
│ flatten_9 (Flatten)             │ (None, 100)            │             0 │
├─────────────────────────────────┼────────────────────────┼───────────────┤
│ dense_29 (Dense)                │ (None, 1)              │           101 │
└─────────────────────────────────┴────────────────────────┴───────────────┘
 Total params: 11,501 (44.93 KB)
 Trainable params: 11,501 (44.93 KB)
 Non-trainable params: 0 (0.00 B)
Model: ""sequential_10""
┏━━━━━━━━━━━━━━━━━━━━━━━━━━━━━━━━━┳━━━━━━━━━━━━━━━━━━━━━━━━┳━━━━━━━━━━━━━━━┓
┃ Layer (type)                    ┃ Output Shape           ┃       Param # ┃
┡━━━━━━━━━━━━━━━━━━━━━━━━━━━━━━━━━╇━━━━━━━━━━━━━━━━━━━━━━━━╇━━━━━━━━━━━━━━━┩
│ dense_30 (Dense)                │ (None, 17, 10, 100)    │         1,500 │
├─────────────────────────────────┼────────────────────────┼───────────────┤
│ dense_31 (Dense)                │ (None, 17, 10, 100)    │        10,100 │
├─────────────────────────────────┼────────────────────────┼───────────────┤
│ flatten_10 (Flatten)            │ (None, 17000)          │             0 │
├─────────────────────────────────┼────────────────────────┼───────────────┤
│ dense_32 (Dense)                │ (None, 1)              │        17,001 │
└─────────────────────────────────┴────────────────────────┴───────────────┘
 Total params: 28,601 (111.72 KB)
 Trainable params: 28,601 (111.72 KB)
 Non-trainable params: 0 (0.00 B)
Model: ""sequential_11""
┏━━━━━━━━━━━━━━━━━━━━━━━━━━━━━━━━━┳━━━━━━━━━━━━━━━━━━━━━━━━┳━━━━━━━━━━━━━━━┓
┃ Layer (type)                    ┃ Output Shape           ┃       Param # ┃
┡━━━━━━━━━━━━━━━━━━━━━━━━━━━━━━━━━╇━━━━━━━━━━━━━━━━━━━━━━━━╇━━━━━━━━━━━━━━━┩
│ dense_33 (Dense)                │ (None, 100)            │         1,800 │
├─────────────────────────────────┼────────────────────────┼───────────────┤
│ dense_34 (Dense)                │ (None, 100)            │        10,100 │
├─────────────────────────────────┼────────────────────────┼───────────────┤
│ flatten_11 (Flatten)            │ (None, 100)            │             0 │
├─────────────────────────────────┼────────────────────────┼───────────────┤
│ dense_35 (Dense)                │ (None, 1)              │           101 │
└─────────────────────────────────┴────────────────────────┴───────────────┘
 Total params: 12,001 (46.88 KB)
 Trainable params: 12,001 (46.88 KB)
 Non-trainable params: 0 (0.00 B)
Model: ""sequential_12""
┏━━━━━━━━━━━━━━━━━━━━━━━━━━━━━━━━━┳━━━━━━━━━━━━━━━━━━━━━━━━┳━━━━━━━━━━━━━━━┓
┃ Layer (type)                    ┃ Output Shape           ┃       Param # ┃
┡━━━━━━━━━━━━━━━━━━━━━━━━━━━━━━━━━╇━━━━━━━━━━━━━━━━━━━━━━━━╇━━━━━━━━━━━━━━━┩
│ dense_36 (Dense)                │ (None, 100)            │         1,600 │
├─────────────────────────────────┼────────────────────────┼───────────────┤
│ dense_37 (Dense)                │ (None, 100)            │        10,100 │
├─────────────────────────────────┼────────────────────────┼───────────────┤
│ flatten_12 (Flatten)            │ (None, 100)            │             0 │
├─────────────────────────────────┼────────────────────────┼───────────────┤
│ dense_38 (Dense)                │ (None, 1)              │           101 │
└─────────────────────────────────┴────────────────────────┴───────────────┘
 Total params: 11,801 (46.10 KB)
 Trainable params: 11,801 (46.10 KB)
 Non-trainable params: 0 (0.00 B)
Model: ""sequential_13""
┏━━━━━━━━━━━━━━━━━━━━━━━━━━━━━━━━━┳━━━━━━━━━━━━━━━━━━━━━━━━┳━━━━━━━━━━━━━━━┓
┃ Layer (type)                    ┃ Output Shape           ┃       Param # ┃
┡━━━━━━━━━━━━━━━━━━━━━━━━━━━━━━━━━╇━━━━━━━━━━━━━━━━━━━━━━━━╇━━━━━━━━━━━━━━━┩
│ dense_39 (Dense)                │ (None, 19, 100)        │         1,200 │
├─────────────────────────────────┼────────────────────────┼───────────────┤
│ dense_40 (Dense)                │ (None, 19, 100)        │        10,100 │
├─────────────────────────────────┼────────────────────────┼───────────────┤
│ flatten_13 (Flatten)            │ (None, 1900)           │             0 │
├─────────────────────────────────┼────────────────────────┼───────────────┤
│ dense_41 (Dense)                │ (None, 1)              │         1,901 │
└─────────────────────────────────┴────────────────────────┴───────────────┘
 Total params: 13,201 (51.57 KB)
 Trainable params: 13,201 (51.57 KB)
 Non-trainable params: 0 (0.00 B)
Model: ""sequential_14""
┏━━━━━━━━━━━━━━━━━━━━━━━━━━━━━━━━━┳━━━━━━━━━━━━━━━━━━━━━━━━┳━━━━━━━━━━━━━━━┓
┃ Layer (type)                    ┃ Output Shape           ┃       Param # ┃
┡━━━━━━━━━━━━━━━━━━━━━━━━━━━━━━━━━╇━━━━━━━━━━━━━━━━━━━━━━━━╇━━━━━━━━━━━━━━━┩
│ dense_42 (Dense)                │ (None, 100)            │         2,000 │
├─────────────────────────────────┼────────────────────────┼───────────────┤
│ dense_43 (Dense)                │ (None, 100)            │        10,100 │
├─────────────────────────────────┼────────────────────────┼───────────────┤
│ flatten_14 (Flatten)            │ (None, 100)            │             0 │
├─────────────────────────────────┼────────────────────────┼───────────────┤
│ dense_44 (Dense)                │ (None, 1)              │           101 │
└─────────────────────────────────┴────────────────────────┴───────────────┘
 Total params: 12,201 (47.66 KB)
 Trainable params: 12,201 (47.66 KB)
 Non-trainable params: 0 (0.00 B)
Model: ""sequential_15""
┏━━━━━━━━━━━━━━━━━━━━━━━━━━━━━━━━━┳━━━━━━━━━━━━━━━━━━━━━━━━┳━━━━━━━━━━━━━━━┓
┃ Layer (type)                    ┃ Output Shape           ┃       Param # ┃
┡━━━━━━━━━━━━━━━━━━━━━━━━━━━━━━━━━╇━━━━━━━━━━━━━━━━━━━━━━━━╇━━━━━━━━━━━━━━━┩
│ dense_45 (Dense)                │ (None, 1, 100)         │           200 │
├─────────────────────────────────┼────────────────────────┼───────────────┤
│ dense_46 (Dense)                │ (None, 1, 100)         │        10,100 │
├─────────────────────────────────┼────────────────────────┼───────────────┤
│ flatten_15 (Flatten)            │ (None, 100)            │             0 │
├─────────────────────────────────┼────────────────────────┼───────────────┤
│ dense_47 (Dense)                │ (None, 1)              │           101 │
└─────────────────────────────────┴────────────────────────┴───────────────┘
 Total params: 10,401 (40.63 KB)
 Trainable params: 10,401 (40.63 KB)
 Non-trainable params: 0 (0.00 B)
Model: ""sequential_16""
┏━━━━━━━━━━━━━━━━━━━━━━━━━━━━━━━━━┳━━━━━━━━━━━━━━━━━━━━━━━━┳━━━━━━━━━━━━━━━┓
┃ Layer (type)                    ┃ Output Shape           ┃       Param # ┃
┡━━━━━━━━━━━━━━━━━━━━━━━━━━━━━━━━━╇━━━━━━━━━━━━━━━━━━━━━━━━╇━━━━━━━━━━━━━━━┩
│ dense_48 (Dense)                │ (None, 16, 100)        │           800 │
├─────────────────────────────────┼────────────────────────┼───────────────┤
│ dense_49 (Dense)                │ (None, 16, 100)        │        10,100 │
├─────────────────────────────────┼────────────────────────┼───────────────┤
│ flatten_16 (Flatten)            │ (None, 1600)           │             0 │
├─────────────────────────────────┼────────────────────────┼───────────────┤
│ dense_50 (Dense)                │ (None, 1)              │         1,601 │
└────────────…[truncated]; stderr=WARNING: All log messages before absl::InitializeLog() is called are written to STDERR
I0000 00:00:1784587043.792653  206675 cudart_stub.cc:31] Could not find cuda drivers on your machine, GPU will not be used.
I0000 00:00:1784587043.840964  206675 cpu_feature_guard.cc:227] This TensorFlow binary is optimized to use available CPU instructions in performance-critical operations.
…
    y_train = y_processed[:split_idx]
    y_test = y_processed[split_idx:]
    
    return x_data, y_processed, x_train, x_test, y_train, y_test
```"
keras_90,keras,False,0,0,18211,,0.0,completed,dscodebench-keras_90-ca150d39,,,39449,dscodebench,keras_90,keras,"parse evaluator output: expected value at line 1 column 1; stdout=Model: ""sequential""
┏━━━━━━━━━━━━━━━━━━━━━━━━━━━━━━━━━┳━━━━━━━━━━━━━━━━━━━━━━━━┳━━━━━━━━━━━━━━━┓
┃ Layer (type)                    ┃ Output Shape           ┃       Param # ┃
┡━━━━━━━━━━━━━━━━━━━━━━━━━━━━━━━━━╇━━━━━━━━━━━━━━━━━━━━━━━━╇━━━━━━━━━━━━━━━┩
│ dense (Dense)                   │ (None, 100)            │         7,400 │
├─────────────────────────────────┼────────────────────────┼───────────────┤
│ leaky_re_lu (LeakyReLU)         │ (None, 100)            │             0 │
├─────────────────────────────────┼────────────────────────┼───────────────┤
│ layer_normalization             │ (None, 100)            │           200 │
│ (LayerNormalization)            │                        │               │
├─────────────────────────────────┼────────────────────────┼───────────────┤
│ dense_1 (Dense)                 │ (None, 100)            │        10,100 │
├─────────────────────────────────┼────────────────────────┼───────────────┤
│ leaky_re_lu_1 (LeakyReLU)       │ (None, 100)            │             0 │
├─────────────────────────────────┼────────────────────────┼───────────────┤
│ layer_normalization_1           │ (None, 100)            │           200 │
│ (LayerNormalization)            │                        │               │
├─────────────────────────────────┼────────────────────────┼───────────────┤
│ dense_2 (Dense)                 │ (None, 1)              │           101 │
└─────────────────────────────────┴────────────────────────┴───────────────┘
 Total params: 18,001 (70.32 KB)
 Trainable params: 18,001 (70.32 KB)
 Non-trainable params: 0 (0.00 B)
Model: ""sequential_1""
┏━━━━━━━━━━━━━━━━━━━━━━━━━━━━━━━━━┳━━━━━━━━━━━━━━━━━━━━━━━━┳━━━━━━━━━━━━━━━┓
┃ Layer (type)                    ┃ Output Shape           ┃       Param # ┃
┡━━━━━━━━━━━━━━━━━━━━━━━━━━━━━━━━━╇━━━━━━━━━━━━━━━━━━━━━━━━╇━━━━━━━━━━━━━━━┩
│ dense_3 (Dense)                 │ (None, 100)            │         1,200 │
├─────────────────────────────────┼────────────────────────┼───────────────┤
│ leaky_re_lu_2 (LeakyReLU)       │ (None, 100)            │             0 │
├─────────────────────────────────┼────────────────────────┼───────────────┤
│ layer_normalization_2           │ (None, 100)            │           200 │
│ (LayerNormalization)            │                        │               │
├─────────────────────────────────┼────────────────────────┼───────────────┤
│ dense_4 (Dense)                 │ (None, 100)            │        10,100 │
├─────────────────────────────────┼────────────────────────┼───────────────┤
│ leaky_re_lu_3 (LeakyReLU)       │ (None, 100)            │             0 │
├─────────────────────────────────┼────────────────────────┼───────────────┤
│ layer_normalization_3           │ (None, 100)            │           200 │
│ (LayerNormalization)            │                        │               │
├─────────────────────────────────┼────────────────────────┼───────────────┤
│ dense_5 (Dense)                 │ (None, 12)             │         1,212 │
└─────────────────────────────────┴────────────────────────┴───────────────┘
 Total params: 12,912 (50.44 KB)
 Trainable params: 12,912 (50.44 KB)
 Non-trainable params: 0 (0.00 B)
Model: ""sequential_2""
┏━━━━━━━━━━━━━━━━━━━━━━━━━━━━━━━━━┳━━━━━━━━━━━━━━━━━━━━━━━━┳━━━━━━━━━━━━━━━┓
┃ Layer (type)                    ┃ Output Shape           ┃       Param # ┃
┡━━━━━━━━━━━━━━━━━━━━━━━━━━━━━━━━━╇━━━━━━━━━━━━━━━━━━━━━━━━╇━━━━━━━━━━━━━━━┩
│ dense_6 (Dense)                 │ (None, 100)            │         8,400 │
├─────────────────────────────────┼────────────────────────┼───────────────┤
│ leaky_re_lu_4 (LeakyReLU)       │ (None, 100)            │             0 │
├─────────────────────────────────┼────────────────────────┼───────────────┤
│ layer_normalization_4           │ (None, 100)            │           200 │
│ (LayerNormalization)            │                        │               │
├─────────────────────────────────┼────────────────────────┼───────────────┤
│ dense_7 (Dense)                 │ (None, 100)            │        10,100 │
├─────────────────────────────────┼────────────────────────┼───────────────┤
│ leaky_re_lu_5 (LeakyReLU)       │ (None, 100)            │             0 │
├─────────────────────────────────┼────────────────────────┼───────────────┤
│ layer_normalization_5           │ (None, 100)            │           200 │
│ (LayerNormalization)            │                        │               │
├─────────────────────────────────┼────────────────────────┼───────────────┤
│ dense_8 (Dense)                 │ (None, 5)              │           505 │
└─────────────────────────────────┴────────────────────────┴───────────────┘
 Total params: 19,405 (75.80 KB)
 Trainable params: 19,405 (75.80 KB)
 Non-trainable params: 0 (0.00 B)
Model: ""sequential_3""
┏━━━━━━━━━━━━━━━━━━━━━━━━━━━━━━━━━┳━━━━━━━━━━━━━━━━━━━━━━━━┳━━━━━━━━━━━━━━━┓
┃ Layer (type)                    ┃ Output Shape           ┃       Param # ┃
┡━━━━━━━━━━━━━━━━━━━━━━━━━━━━━━━━━╇━━━━━━━━━━━━━━━━━━━━━━━━╇━━━━━━━━━━━━━━━┩
│ dense_9 (Dense)                 │ (None, 100)            │         6,300 │
├─────────────────────────────────┼────────────────────────┼───────────────┤
│ leaky_re_lu_6 (LeakyReLU)       │ (None, 100)            │             0 │
├─────────────────────────────────┼────────────────────────┼───────────────┤
│ layer_normalization_6           │ (None, 100)            │           200 │
│ (LayerNormalization)            │                        │               │
├─────────────────────────────────┼────────────────────────┼───────────────┤
│ dense_10 (Dense)                │ (None, 100)            │        10,100 │
├─────────────────────────────────┼────────────────────────┼───────────────┤
│ leaky_re_lu_7 (LeakyReLU)       │ (None, 100)            │             0 │
├─────────────────────────────────┼────────────────────────┼───────────────┤
│ layer_normalization_7           │ (None, 100)            │           200 │
│ (LayerNormalization)            │                        │               │
├─────────────────────────────────┼────────────────────────┼───────────────┤
│ dense_11 (Dense)                │ (None, 3)              │           303 │
└─────────────────────────────────┴────────────────────────┴───────────────┘
 Total params: 17,103 (66.81 KB)
 Trainable params: 17,103 (66.81 KB)
 Non-trainable params: 0 (0.00 B)
Model: ""sequential_4""
┏━━━━━━━━━━━━━━━━━━━━━━━━━━━━━━━━━┳━━━━━━━━━━━━━━━━━━━━━━━━┳━━━━━━━━━━━━━━━┓
┃ Layer (type)                    ┃ Output Shape           ┃       Param # ┃
┡━━━━━━━━━━━━━━━━━━━━━━━━━━━━━━━━━╇━━━━━━━━━━━━━━━━━━━━━━━━╇━━━━━━━━━━━━━━━┩
│ dense_12 (Dense)                │ (None, 100)            │         9,100 │
├─────────────────────────────────┼────────────────────────┼───────────────┤
│ leaky_re_lu_8 (LeakyReLU)       │ (None, 100)            │             0 │
├─────────────────────────────────┼────────────────────────┼───────────────┤
│ layer_normalization_8           │ (None, 100)            │           200 │
│ (LayerNormalization)            │                        │               │
├─────────────────────────────────┼────────────────────────┼───────────────┤
│ dense_13 (Dense)                │ (None, 100)            │        10,100 │
├─────────────────────────────────┼────────────────────────┼───────────────┤
│ leaky_re_lu_9 (LeakyReLU)       │ (None, 100)            │             0 │
├─────────────────────────────────┼────────────────────────┼───────────────┤
│ layer_normalization_9           │ (None, 100)            │           200 │
│ (LayerNormalization)            │                        │               │
├─────────────────────────────────┼────────────────────────┼───────────────┤
│ dense_14 (Dense)                │ (None, 12)             │         1,212 │
└─────────────────────────────────┴────────────────────────┴───────────────┘
 Total params: 20,812 (81.30 KB)
 Trainable params: 20,812 (81.30 KB)
 Non-trainable params: 0 (0.00 B)
Model: ""sequential_5""
┏━━━━━━━━━━━━━━━━━━━━━━━━━━━━━━━━━┳━━━━━━━━━━━━━━━━━━━━━━━━┳━━━━━━━━━━━━━━━┓
┃ Layer (type)                    ┃ Output Shape           ┃       Param # ┃
┡━━━━━━━━━━━━━━━━━━━━━━━━━━━━━━━━━╇━━━━━━━━━━━━━━━━━━━━━━━━╇━━━━━━━━━━━━━━━┩
│ dense_15 (Dense)                │ (None, 100)            │         3,200 │
├─────────────────────────────────┼────────────────────────┼───────────────┤
│ leaky_re_lu_10 (LeakyReLU)      │ (None, 100)            │             0 │
├─────────────────────────────────┼────────────────────────┼───────────────┤
│ layer_normalization_10          │ (None, 100)            │           200 │
│ (LayerNormalization)            │                        │               │
├─────────────────────────────────┼────────────────────────┼───────────────┤
│ dense_16 (Dense)                │ (None, 100)            │        10,100 │
├─────────────────────────────────┼────────────────────────┼───────────────┤
│ leaky_re_lu_11 (LeakyReLU)      │ (None, 100)            │             0 │
├─────────────────────────────────┼────────────────────────┼───────────────┤
│ layer_normalization_11          │ (None, 100)            │           200 │
│ (LayerNormalization)            │                        │               │
├─────────────────────────────────┼────────────────────────┼───────────────┤
│ dense_17 (Dense)                │ (None, 5)              │           505 │
└─────────────────────────────────┴────────────────────────┴───────────────┘
 Total params: 14,205 (55.49 KB)
 Trainable params: 14,205 (55.49 KB)
 Non-trainable params: 0 (0.00 B)
Model: ""sequential_6""
┏━━━━━━━━━━━━━━━━━━━━━━━━━━━━━━━━━┳━━━━━━━━━━━━━━━━━━━━━━━━┳━━━━━━━━━━━━━━━┓
┃ Layer (type)                    ┃ Output Shape           ┃       Param # ┃
┡━━━━━━━━━━━━━━━━━━━━━━━━━━━━━━━━━╇━━━━━━━━━━━━━━━━━━━━━━━━╇━━━━━━━━━━━━━━━┩
│ dense_18 (Dense)                │ (None, 100)            │         9,100 │
├─────────────────────────────────┼────────────────────────┼───────────────┤
│ leaky_re_lu_12 (LeakyReLU)      │ (None, 100)            │             0 │
├─────────────────────────────────┼────────────────────────┼───────────────┤
│ layer_normalization_12          │ (None, 100)            │           200 │
│ (LayerNormalization)            │                        │               │
├─────────────────────────────────┼────────────────────────┼───────────────┤
│ dense_19 (Dense)                │ (None, 100)            │        10,100 │
├─────────────────────────────────┼────────────────────────┼───────────────┤
│ leaky_re_lu_13 (LeakyReLU)      │ (None, 100)            │             0 │
├─────────────────────────────────┼────────────────────────┼───────────────┤
│ layer_normalization_13          │ (None, 100)            │           200 │
│ (LayerNormalization)            │                        │               │
├─────────────────────────────────┼────────────────────────┼───────────────┤
│ dense_20 (Dense)                │ (None, 16)             │         1,616 │
└─────────────────────────────────┴────────────────────────┴───────────────┘
 Total params: 21,216 (82.88 KB)
 Trainable params: 21,216 (82.88 KB)
 Non-trainable params: 0 (0.00 B)
Model: ""sequential_7""
┏━━━━━━━━━━━━━━━━━━━━━━━━━━━━━━━━━┳━━━━━━━━━━━━━━━━━━━━━━━━┳━━━━━━━━━━━━━━━┓
┃ Layer (type)                    ┃ Output Shape           ┃       Param # ┃
┡━━━━━━━━━━━━━━━━━━━━━━━━━━━━━━━━━╇━━━━━━━━━━━━━━━━━━━━━━━━╇━━━━━━━━━━━━━━━┩
│ dense_21 (Dense)                │ (None, 100)            │         5,600 │
├─────────────────────────────────┼────────────────────────┼───────────────┤
│ leaky_re_lu_14 (LeakyReLU)      │ (None, 100)            │             0 │
├─────────────────────────────────┼────────────────────────┼───────────────┤
│ layer_normalization_14          │ (None, 100)            │           200 │
│ (LayerNormalization)            │                        │               │
├─────────────────────────────────┼────────────────────────┼───────────────┤
│ dense_22 (Dense)                │ (None, 100)            │        10,100 │
├─────────────────────────────────┼────────────────────────┼───────────────┤
│ leaky_re_lu_15 (LeakyReLU)      │ (None, 100)            │             0 │
├─────────────────────────────────┼────────────────────────┼───────────────┤
│ layer_normalization_15          │ (None, 100)            │           200 │
│ (LayerNormalization)            │                        │               │
├─────────────────────────────────┼────────────────────────┼───────────────┤
│ dense_23 (Dense)                │ (None, 19)             │         1,919 │
└─────────────────────────────────┴────────────────────────┴───────────────┘
 Total params: 18,019 (70.39 KB)
 Trainable params: 18,019 (70.39 KB)
 Non-trainable params: 0 (0.00 B)
Model: ""sequential_8""
┏━━━━━━━━━━━━━━━━━━━━━━━━━━━━━━━━━┳━━━━━━━━━━━━━━━━━━━━━━━━┳━━━━━━━━━━━━━━━┓
┃ Layer (type)                    ┃ Output Shape           ┃       Param # ┃
┡━━━━━━━━━━━━━━━━━━━━━━━━━━━━━━━━━╇━━━━━━━━━━━━━━━━━━━━━━━━╇━━━━━━━━━━━━━━━┩
│ dense_24 (Dense)                │ (None, 100)            │         3,100 │
├─────────────────────────────────┼────────────────────────┼───────────────┤
│ leaky_re_lu_16 (LeakyReLU)      │ (None, 100)            │             0 │
├─────────────────────────────────┼────────────────────────┼───────────────┤
│ layer_normalization_16          │ (None, 100)            │           200 │
│ (LayerNormalization)            │                        │               │
├─────────────────────────────────┼────────────────────────┼───────────────┤
│ dense_25 (Dense)                │ (None, 100)            │        10,100 │
├─────────────────────────────────┼────────────────────────┼───────────────┤
│ leaky_re_lu_17 (LeakyReLU)      │ (None, 100)            │             0 │
├─────────────────────────────────┼────────────────────────┼───────────────┤
│ layer_normalization_17          │ (None, 100)            │           200 │
│ (LayerNormalization)            │                        │               │
├─────────────────────────────────┼────────────────────────┼───────────────┤
│ dense_26 (Dense)                │ (None, 16)             │         1,616 │
└─────────────────────────────────┴────────────────────────┴───────────────┘
 Total params: 15,216 (59.44 KB)
 Trainable params: 15,216 (59.44 KB)
 Non-trainable params: 0 (0.00 B)
Model: ""sequential_9""
┏━━━━━━━━━━━━━━━━━━━━━━━━━━━━━━━━━┳━━━━━━━━━━━━━━━━━━━━━━━━┳━━━━━━━━━━━━━━━┓
┃ Layer (type)                    ┃ Output Shape           ┃       Param # ┃
┡━━━━━━━━━━━━━━━━━━━━━━━━━━━━━━━━━╇━━━━━━━━━━━━━━━━━━━━━━━━╇━━━━━━━━━━━━━━━┩
│ dense_27 (Dense)                │ (None, 100)            │         2,900 │
├─────────────────────────────────┼────────────────────────┼───────────────┤
│ leaky_re_lu_18 (LeakyReLU)      │ (None, 100)            │             0 │
├─────────────────────────────────┼────────────────────────┼───────────────┤
│ layer_normalization_18          │ (None, 100)            │           200 │
│ (LayerNormalization)            │                        │               │
├─────────────────────────────────┼────────────────────────┼───────────────┤
│ dense_28 (Dense)                │ (None, 100)            │        10,100 │
├─────────────────────────────────┼────────────────────────┼───────────────┤
│ leaky_re_lu_19 (LeakyReLU)      │ (None, 100)            │             0 │
├─────────────────────────────────┼────────────────────────┼───────────────┤
│ layer_normalization_19          │ (None, 100)            │           200 │
│ (LayerNormalization)            │                        │               │
├─────────────────────────────────┼────────────────────────┼───────────────┤
│ dense_29 (Dense)                │ (None, 2)              │           202 │
└─────────────────────────────────┴────────────────────────┴───────────────┘
 Total params: 13,602 (53.13 KB)
 Trainable params: 13,602 (53.13 KB)
 Non-trainable params: 0 (0.00 B)
Model: ""sequential_10""
┏━━━━━━━━━━━━━━━━━━━━━━━━━━━━━━━━━┳━━━━━━━━━━━━━━━━━━━━━━━━┳━━━━━━━━━━━━━━━┓
┃ Layer (type)                    ┃ Output Shape           ┃       Param # ┃
┡━━━━━━━━━━━━━━━━━━━━━━━━━━━━━━━━━╇━━━━━━━━━━━━━━━━━━━━━━━━╇━━━━━━━━━━━━━━━┩
│ dense_30 (Dense)                │ (None, 100)            │         4,700 │
├─────────────────────────────────┼────────────────────────┼───────────────┤
│ leaky_re_lu_20 (LeakyReLU)      │ (None, 100)            │             0 │
├──────────…[truncated]; stderr=WARNING: All log messages before absl::InitializeLog() is called are written to STDERR
I0000 00:00:1784589175.012931  267356 cudart_stub.cc:31] Could not find cuda drivers on your machine, GPU will not be used.
I0000 00:00:1784589175.061617  267356 cpu_feature_guard.cc:227] This TensorFlow binary is optimized to use available CPU instructions in performance-critical operations.
…
    rpn_bbox = Conv2D(anchors_per_location * 4, (1, 1), activation='linear', padding='same', name='rpn_bbox_pred')(shared)
    rpn_bbox = Reshape((-1, 4), name='rpn_bbox_reshape')(rpn_bbox)
    
    return rpn_class_logits, rpn_probs, rpn_bbox
```"
keras_100,keras,False,0,0,21141,,0.0,completed,dscodebench-keras_100-20355723,,,34810,dscodebench,keras_100,keras,"parse evaluator output: expected value at line 1 column 1; stdout=Model: ""sequential""
┏━━━━━━━━━━━━━━━━━━━━━━━━━━━━━━━━━┳━━━━━━━━━━━━━━━━━━━━━━━━┳━━━━━━━━━━━━━━━┓
┃ Layer (type)                    ┃ Output Shape           ┃       Param # ┃
┡━━━━━━━━━━━━━━━━━━━━━━━━━━━━━━━━━╇━━━━━━━━━━━━━━━━━━━━━━━━╇━━━━━━━━━━━━━━━┩
│ conv1d (Conv1D)                 │ (None, 68, 256)        │         1,536 │
├─────────────────────────────────┼────────────────────────┼───────────────┤
│ max_pooling1d (MaxPooling1D)    │ (None, 17, 256)        │             0 │
├─────────────────────────────────┼────────────────────────┼───────────────┤
│ lstm (LSTM)                     │ (None, 64)             │        82,176 │
├─────────────────────────────────┼────────────────────────┼───────────────┤
│ dense (Dense)                   │ (None, 68)             │         4,420 │
└─────────────────────────────────┴────────────────────────┴───────────────┘
 Total params: 88,132 (344.27 KB)
 Trainable params: 88,132 (344.27 KB)
 Non-trainable params: 0 (0.00 B)
None
Model: ""sequential_1""
┏━━━━━━━━━━━━━━━━━━━━━━━━━━━━━━━━━┳━━━━━━━━━━━━━━━━━━━━━━━━┳━━━━━━━━━━━━━━━┓
┃ Layer (type)                    ┃ Output Shape           ┃       Param # ┃
┡━━━━━━━━━━━━━━━━━━━━━━━━━━━━━━━━━╇━━━━━━━━━━━━━━━━━━━━━━━━╇━━━━━━━━━━━━━━━┩
│ conv1d_1 (Conv1D)               │ (None, 70, 256)        │         1,536 │
├─────────────────────────────────┼────────────────────────┼───────────────┤
│ max_pooling1d_1 (MaxPooling1D)  │ (None, 17, 256)        │             0 │
├─────────────────────────────────┼────────────────────────┼───────────────┤
│ lstm_1 (LSTM)                   │ (None, 64)             │        82,176 │
├─────────────────────────────────┼────────────────────────┼───────────────┤
│ dense_1 (Dense)                 │ (None, 70)             │         4,550 │
└─────────────────────────────────┴────────────────────────┴───────────────┘
 Total params: 88,262 (344.77 KB)
 Trainable params: 88,262 (344.77 KB)
 Non-trainable params: 0 (0.00 B)
None
Model: ""sequential_2""
┏━━━━━━━━━━━━━━━━━━━━━━━━━━━━━━━━━┳━━━━━━━━━━━━━━━━━━━━━━━━┳━━━━━━━━━━━━━━━┓
┃ Layer (type)                    ┃ Output Shape           ┃       Param # ┃
┡━━━━━━━━━━━━━━━━━━━━━━━━━━━━━━━━━╇━━━━━━━━━━━━━━━━━━━━━━━━╇━━━━━━━━━━━━━━━┩
│ conv1d_2 (Conv1D)               │ (None, 27, 256)        │         1,536 │
├─────────────────────────────────┼────────────────────────┼───────────────┤
│ max_pooling1d_2 (MaxPooling1D)  │ (None, 6, 256)         │             0 │
├─────────────────────────────────┼────────────────────────┼───────────────┤
│ lstm_2 (LSTM)                   │ (None, 64)             │        82,176 │
├─────────────────────────────────┼────────────────────────┼───────────────┤
│ dense_2 (Dense)                 │ (None, 27)             │         1,755 │
└─────────────────────────────────┴────────────────────────┴───────────────┘
 Total params: 85,467 (333.86 KB)
 Trainable params: 85,467 (333.86 KB)
 Non-trainable params: 0 (0.00 B)
None
Model: ""sequential_3""
┏━━━━━━━━━━━━━━━━━━━━━━━━━━━━━━━━━┳━━━━━━━━━━━━━━━━━━━━━━━━┳━━━━━━━━━━━━━━━┓
┃ Layer (type)                    ┃ Output Shape           ┃       Param # ┃
┡━━━━━━━━━━━━━━━━━━━━━━━━━━━━━━━━━╇━━━━━━━━━━━━━━━━━━━━━━━━╇━━━━━━━━━━━━━━━┩
│ conv1d_3 (Conv1D)               │ (None, 10, 256)        │         1,536 │
├─────────────────────────────────┼────────────────────────┼───────────────┤
│ max_pooling1d_3 (MaxPooling1D)  │ (None, 2, 256)         │             0 │
├─────────────────────────────────┼────────────────────────┼───────────────┤
│ lstm_3 (LSTM)                   │ (None, 64)             │        82,176 │
├─────────────────────────────────┼────────────────────────┼───────────────┤
│ dense_3 (Dense)                 │ (None, 10)             │           650 │
└─────────────────────────────────┴────────────────────────┴───────────────┘
 Total params: 84,362 (329.54 KB)
 Trainable params: 84,362 (329.54 KB)
 Non-trainable params: 0 (0.00 B)
None
Model: ""sequential_4""
┏━━━━━━━━━━━━━━━━━━━━━━━━━━━━━━━━━┳━━━━━━━━━━━━━━━━━━━━━━━━┳━━━━━━━━━━━━━━━┓
┃ Layer (type)                    ┃ Output Shape           ┃       Param # ┃
┡━━━━━━━━━━━━━━━━━━━━━━━━━━━━━━━━━╇━━━━━━━━━━━━━━━━━━━━━━━━╇━━━━━━━━━━━━━━━┩
│ conv1d_4 (Conv1D)               │ (None, 19, 256)        │         1,536 │
├─────────────────────────────────┼────────────────────────┼───────────────┤
│ max_pooling1d_4 (MaxPooling1D)  │ (None, 4, 256)         │             0 │
├─────────────────────────────────┼────────────────────────┼───────────────┤
│ lstm_4 (LSTM)                   │ (None, 64)             │        82,176 │
├─────────────────────────────────┼────────────────────────┼───────────────┤
│ dense_4 (Dense)                 │ (None, 19)             │         1,235 │
└─────────────────────────────────┴────────────────────────┴───────────────┘
 Total params: 84,947 (331.82 KB)
 Trainable params: 84,947 (331.82 KB)
 Non-trainable params: 0 (0.00 B)
None
Model: ""sequential_5""
┏━━━━━━━━━━━━━━━━━━━━━━━━━━━━━━━━━┳━━━━━━━━━━━━━━━━━━━━━━━━┳━━━━━━━━━━━━━━━┓
┃ Layer (type)                    ┃ Output Shape           ┃       Param # ┃
┡━━━━━━━━━━━━━━━━━━━━━━━━━━━━━━━━━╇━━━━━━━━━━━━━━━━━━━━━━━━╇━━━━━━━━━━━━━━━┩
│ conv1d_5 (Conv1D)               │ (None, 40, 256)        │         1,536 │
├─────────────────────────────────┼────────────────────────┼───────────────┤
│ max_pooling1d_5 (MaxPooling1D)  │ (None, 10, 256)        │             0 │
├─────────────────────────────────┼────────────────────────┼───────────────┤
│ lstm_5 (LSTM)                   │ (None, 64)             │        82,176 │
├─────────────────────────────────┼────────────────────────┼───────────────┤
│ dense_5 (Dense)                 │ (None, 40)             │         2,600 │
└─────────────────────────────────┴────────────────────────┴───────────────┘
 Total params: 86,312 (337.16 KB)
 Trainable params: 86,312 (337.16 KB)
 Non-trainable params: 0 (0.00 B)
None
Model: ""sequential_6""
┏━━━━━━━━━━━━━━━━━━━━━━━━━━━━━━━━━┳━━━━━━━━━━━━━━━━━━━━━━━━┳━━━━━━━━━━━━━━━┓
┃ Layer (type)                    ┃ Output Shape           ┃       Param # ┃
┡━━━━━━━━━━━━━━━━━━━━━━━━━━━━━━━━━╇━━━━━━━━━━━━━━━━━━━━━━━━╇━━━━━━━━━━━━━━━┩
│ conv1d_6 (Conv1D)               │ (None, 54, 256)        │         1,536 │
├─────────────────────────────────┼────────────────────────┼───────────────┤
│ max_pooling1d_6 (MaxPooling1D)  │ (None, 13, 256)        │             0 │
├─────────────────────────────────┼────────────────────────┼───────────────┤
│ lstm_6 (LSTM)                   │ (None, 64)             │        82,176 │
├─────────────────────────────────┼────────────────────────┼───────────────┤
│ dense_6 (Dense)                 │ (None, 54)             │         3,510 │
└─────────────────────────────────┴────────────────────────┴───────────────┘
 Total params: 87,222 (340.71 KB)
 Trainable params: 87,222 (340.71 KB)
 Non-trainable params: 0 (0.00 B)
None
Model: ""sequential_7""
┏━━━━━━━━━━━━━━━━━━━━━━━━━━━━━━━━━┳━━━━━━━━━━━━━━━━━━━━━━━━┳━━━━━━━━━━━━━━━┓
┃ Layer (type)                    ┃ Output Shape           ┃       Param # ┃
┡━━━━━━━━━━━━━━━━━━━━━━━━━━━━━━━━━╇━━━━━━━━━━━━━━━━━━━━━━━━╇━━━━━━━━━━━━━━━┩
│ conv1d_7 (Conv1D)               │ (None, 93, 256)        │         1,536 │
├─────────────────────────────────┼────────────────────────┼───────────────┤
│ max_pooling1d_7 (MaxPooling1D)  │ (None, 23, 256)        │             0 │
├─────────────────────────────────┼────────────────────────┼───────────────┤
│ lstm_7 (LSTM)                   │ (None, 64)             │        82,176 │
├─────────────────────────────────┼────────────────────────┼───────────────┤
│ dense_7 (Dense)                 │ (None, 93)             │         6,045 │
└─────────────────────────────────┴────────────────────────┴───────────────┘
 Total params: 89,757 (350.61 KB)
 Trainable params: 89,757 (350.61 KB)
 Non-trainable params: 0 (0.00 B)
None
Model: ""sequential_8""
┏━━━━━━━━━━━━━━━━━━━━━━━━━━━━━━━━━┳━━━━━━━━━━━━━━━━━━━━━━━━┳━━━━━━━━━━━━━━━┓
┃ Layer (type)                    ┃ Output Shape           ┃       Param # ┃
┡━━━━━━━━━━━━━━━━━━━━━━━━━━━━━━━━━╇━━━━━━━━━━━━━━━━━━━━━━━━╇━━━━━━━━━━━━━━━┩
│ conv1d_8 (Conv1D)               │ (None, 53, 256)        │         1,536 │
├─────────────────────────────────┼────────────────────────┼───────────────┤
│ max_pooling1d_8 (MaxPooling1D)  │ (None, 13, 256)        │             0 │
├─────────────────────────────────┼────────────────────────┼───────────────┤
│ lstm_8 (LSTM)                   │ (None, 64)             │        82,176 │
├─────────────────────────────────┼────────────────────────┼───────────────┤
│ dense_8 (Dense)                 │ (None, 53)             │         3,445 │
└─────────────────────────────────┴────────────────────────┴───────────────┘
 Total params: 87,157 (340.46 KB)
 Trainable params: 87,157 (340.46 KB)
 Non-trainable params: 0 (0.00 B)
None
Model: ""sequential_9""
┏━━━━━━━━━━━━━━━━━━━━━━━━━━━━━━━━━┳━━━━━━━━━━━━━━━━━━━━━━━━┳━━━━━━━━━━━━━━━┓
┃ Layer (type)                    ┃ Output Shape           ┃       Param # ┃
┡━━━━━━━━━━━━━━━━━━━━━━━━━━━━━━━━━╇━━━━━━━━━━━━━━━━━━━━━━━━╇━━━━━━━━━━━━━━━┩
│ conv1d_9 (Conv1D)               │ (None, 12, 256)        │         1,536 │
├─────────────────────────────────┼────────────────────────┼───────────────┤
│ max_pooling1d_9 (MaxPooling1D)  │ (None, 3, 256)         │             0 │
├─────────────────────────────────┼────────────────────────┼───────────────┤
│ lstm_9 (LSTM)                   │ (None, 64)             │        82,176 │
├─────────────────────────────────┼────────────────────────┼───────────────┤
│ dense_9 (Dense)                 │ (None, 12)             │           780 │
└─────────────────────────────────┴────────────────────────┴───────────────┘
 Total params: 84,492 (330.05 KB)
 Trainable params: 84,492 (330.05 KB)
 Non-trainable params: 0 (0.00 B)
None
Model: ""sequential_10""
┏━━━━━━━━━━━━━━━━━━━━━━━━━━━━━━━━━┳━━━━━━━━━━━━━━━━━━━━━━━━┳━━━━━━━━━━━━━━━┓
┃ Layer (type)                    ┃ Output Shape           ┃       Param # ┃
┡━━━━━━━━━━━━━━━━━━━━━━━━━━━━━━━━━╇━━━━━━━━━━━━━━━━━━━━━━━━╇━━━━━━━━━━━━━━━┩
│ conv1d_10 (Conv1D)              │ (None, 39, 256)        │         1,536 │
├─────────────────────────────────┼────────────────────────┼───────────────┤
│ max_pooling1d_10 (MaxPooling1D) │ (None, 9, 256)         │             0 │
├─────────────────────────────────┼────────────────────────┼───────────────┤
│ lstm_10 (LSTM)                  │ (None, 64)             │        82,176 │
├─────────────────────────────────┼────────────────────────┼───────────────┤
│ dense_10 (Dense)                │ (None, 39)             │         2,535 │
└─────────────────────────────────┴────────────────────────┴───────────────┘
 Total params: 86,247 (336.90 KB)
 Trainable params: 86,247 (336.90 KB)
 Non-trainable params: 0 (0.00 B)
None
Model: ""sequential_11""
┏━━━━━━━━━━━━━━━━━━━━━━━━━━━━━━━━━┳━━━━━━━━━━━━━━━━━━━━━━━━┳━━━━━━━━━━━━━━━┓
┃ Layer (type)                    ┃ Output Shape           ┃       Param # ┃
┡━━━━━━━━━━━━━━━━━━━━━━━━━━━━━━━━━╇━━━━━━━━━━━━━━━━━━━━━━━━╇━━━━━━━━━━━━━━━┩
│ conv1d_11 (Conv1D)              │ (None, 31, 256)        │         1,536 │
├─────────────────────────────────┼────────────────────────┼───────────────┤
│ max_pooling1d_11 (MaxPooling1D) │ (None, 7, 256)         │             0 │
├─────────────────────────────────┼────────────────────────┼───────────────┤
│ lstm_11 (LSTM)                  │ (None, 64)             │        82,176 │
├─────────────────────────────────┼────────────────────────┼───────────────┤
│ dense_11 (Dense)                │ (None, 31)             │         2,015 │
└─────────────────────────────────┴────────────────────────┴───────────────┘
 Total params: 85,727 (334.87 KB)
 Trainable params: 85,727 (334.87 KB)
 Non-trainable params: 0 (0.00 B)
None
Model: ""sequential_12""
┏━━━━━━━━━━━━━━━━━━━━━━━━━━━━━━━━━┳━━━━━━━━━━━━━━━━━━━━━━━━┳━━━━━━━━━━━━━━━┓
┃ Layer (type)                    ┃ Output Shape           ┃       Param # ┃
┡━━━━━━━━━━━━━━━━━━━━━━━━━━━━━━━━━╇━━━━━━━━━━━━━━━━━━━━━━━━╇━━━━━━━━━━━━━━━┩
│ conv1d_12 (Conv1D)              │ (None, 54, 256)        │         1,536 │
├─────────────────────────────────┼────────────────────────┼───────────────┤
│ max_pooling1d_12 (MaxPooling1D) │ (None, 13, 256)        │             0 │
├─────────────────────────────────┼────────────────────────┼───────────────┤
│ lstm_12 (LSTM)                  │ (None, 64)             │        82,176 │
├─────────────────────────────────┼────────────────────────┼───────────────┤
│ dense_12 (Dense)                │ (None, 54)             │         3,510 │
└─────────────────────────────────┴────────────────────────┴───────────────┘
 Total params: 87,222 (340.71 KB)
 Trainable params: 87,222 (340.71 KB)
 Non-trainable params: 0 (0.00 B)
None
Model: ""sequential_13""
┏━━━━━━━━━━━━━━━━━━━━━━━━━━━━━━━━━┳━━━━━━━━━━━━━━━━━━━━━━━━┳━━━━━━━━━━━━━━━┓
┃ Layer (type)                    ┃ Output Shape           ┃       Param # ┃
┡━━━━━━━━━━━━━━━━━━━━━━━━━━━━━━━━━╇━━━━━━━━━━━━━━━━━━━━━━━━╇━━━━━━━━━━━━━━━┩
│ conv1d_13 (Conv1D)              │ (None, 14, 256)        │         1,536 │
├─────────────────────────────────┼────────────────────────┼───────────────┤
│ max_pooling1d_13 (MaxPooling1D) │ (None, 3, 256)         │             0 │
├─────────────────────────────────┼────────────────────────┼───────────────┤
│ lstm_13 (LSTM)                  │ (None, 64)             │        82,176 │
├─────────────────────────────────┼────────────────────────┼───────────────┤
│ dense_13 (Dense)                │ (None, 14)             │           910 │
└─────────────────────────────────┴────────────────────────┴───────────────┘
 Total params: 84,622 (330.55 KB)
 Trainable params: 84,622 (330.55 KB)
 Non-trainable params: 0 (0.00 B)
None
Model: ""sequential_14""
┏━━━━━━━━━━━━━━━━━━━━━━━━━━━━━━━━━┳━━━━━━━━━━━━━━━━━━━━━━━━┳━━━━━━━━━━━━━━━┓
┃ Layer (type)                    ┃ Output Shape           ┃       Param # ┃
┡━━━━━━━━━━━━━━━━━━━━━━━━━━━━━━━━━╇━━━━━━━━━━━━━━━━━━━━━━━━╇━━━━━━━━━━━━━━━┩
│ conv1d_14 (Conv1D)              │ (None, 25, 256)        │         1,536 │
├─────────────────────────────────┼────────────────────────┼───────────────┤
│ max_pooling1d_14 (MaxPooling1D) │ (None, 6, 256)         │             0 │
├─────────────────────────────────┼────────────────────────┼───────────────┤
│ lstm_14 (LSTM)                  │ (None, 64)             │        82,176 │
├─────────────────────────────────┼────────────────────────┼───────────────┤
│ dense_14 (Dense)                │ (None, 25)             │         1,625 │
└─────────────────────────────────┴────────────────────────┴───────────────┘
 Total params: 85,337 (333.35 KB)
 Trainable params: 85,337 (333.35 KB)
 Non-trainable params: 0 (0.00 B)
None
Model: ""sequential_15""
┏━━━━━━━━━━━━━━━━━━━━━━━━━━━━━━━━━┳━━━━━━━━━━━━━━━━━━━━━━━━┳━━━━━━━━━━━━━━━┓
┃ Layer (type)                    ┃ Output Shape           ┃       Param # ┃
┡━━━━━━━━━━━━━━━━━━━━━━━━━━━━━━━━━╇━━━━━━━━━━━━━━━━━━━━━━━━╇━━━━━━━━━━━━━━━┩
│ conv1d_15 (Conv1D)              │ (None, 58, 256)        │         1,536 │
├─────────────────────────────────┼────────────────────────┼───────────────┤
│ max_pooling1d_15 (MaxPooling1D) │ (None, 14, 256)        │             0 │
├─────────────────────────────────┼────────────────────────┼───────────────┤
│ lstm_15 (LSTM)                  │ (None, 64)             │        82,176 │
├─────────────────────────────────┼────────────────────────┼───────────────┤
│ dense_15 (Dense)                │ (None, 58)             │         3,770 │
└─────────────────────────────────┴────────────────────────┴───────────────┘
 Total params: 87,482 (341.73 KB)
 Trainable params: 87,482 (341.73 KB)
 Non-trainable params: 0 (0.00 B)
None
Model: ""sequential_16""
┏━━━━━━━━━━━━━━━━━━━━━━━━━━━━━━━━━┳━━━━━━━━━━━━━━━━━━━━━━━━┳━━━━━━━━━━━━━━━┓
┃ Layer (type)                    ┃ Output Shape           ┃       Param # ┃
┡━━━━━━━━━━━━━━━━━━━━━━━━━━━━━━━━━╇━━━━━━━━━━━━━━━━━━━━━━━━╇━━━━━━━━━━━━━━━┩
│ conv1d_16 (Conv1D)              │ (None, 48, 256)        │         1,536 │
├─────────────────────────────────┼────────────────────────┼───────────────┤
│ max_pooling1d_16 (MaxPooling1D) │ (None, 12, 256)        │             0 │
├─────────────────────────────────┼────────────────────────┼───────────────┤
│ lstm_16 (LSTM)                  │ (None, 64)             │        82,176 │
├─────────────────────────────────┼────────────────────────┼─…[truncated]; stderr=WARNING: All log messages before absl::InitializeLog() is called are written to STDERR
I0000 00:00:1784589512.410877  271947 cudart_stub.cc:31] Could not find cuda drivers on your machine, GPU will not be used.
I0000 00:00:1784589512.460186  271947 cpu_feature_guard.cc:227] This TensorFlow binary is optimized to use available CPU instructions in performance-critical operations.
…
    loss = weight * (logit_y_pred * (1.0 - y_true) + tf.math.log(1.0 + tf.math.exp(-tf.math.abs(logit_y_pred))) + tf.math.maximum(-logit_y_pred, 0.0))
    return tf.reduce_sum(loss) / tf.reduce_sum(weight)
```"
keras_102,keras,False,0,0,10487,,0.0,completed,dscodebench-keras_102-7b336d7e,,,27855,dscodebench,keras_102,keras,"parse evaluator output: expected value at line 1 column 1; stdout=Model: ""functional""
┏━━━━━━━━━━━━━━━━━━━━━┳━━━━━━━━━━━━━━━━━━━┳━━━━━━━━━━━━┳━━━━━━━━━━━━━━━━━━━┓
┃ Layer (type)        ┃ Output Shape      ┃    Param # ┃ Connected to      ┃
┡━━━━━━━━━━━━━━━━━━━━━╇━━━━━━━━━━━━━━━━━━━╇━━━━━━━━━━━━╇━━━━━━━━━━━━━━━━━━━┩
│ input_layer         │ (None, 15)        │          0 │ -                 │
│ (InputLayer)        │                   │            │                   │
├─────────────────────┼───────────────────┼────────────┼───────────────────┤
│ dense (Dense)       │ (None, 256)       │      4,096 │ input_layer[0][0] │
├─────────────────────┼───────────────────┼────────────┼───────────────────┤
│ input_layer_1       │ (None, 3)         │          0 │ -                 │
│ (InputLayer)        │                   │            │                   │
├─────────────────────┼───────────────────┼────────────┼───────────────────┤
│ concatenate         │ (None, 259)       │          0 │ dense[0][0],      │
│ (Concatenate)       │                   │            │ input_layer_1[0]… │
├─────────────────────┼───────────────────┼────────────┼───────────────────┤
│ dense_1 (Dense)     │ (None, 128)       │     33,280 │ concatenate[0][0] │
├─────────────────────┼───────────────────┼────────────┼───────────────────┤
│ dense_2 (Dense)     │ (None, 1)         │        129 │ dense_1[0][0]     │
└─────────────────────┴───────────────────┴────────────┴───────────────────┘
 Total params: 37,505 (146.50 KB)
 Trainable params: 37,505 (146.50 KB)
 Non-trainable params: 0 (0.00 B)
Model: ""functional_1""
┏━━━━━━━━━━━━━━━━━━━━━┳━━━━━━━━━━━━━━━━━━━┳━━━━━━━━━━━━┳━━━━━━━━━━━━━━━━━━━┓
┃ Layer (type)        ┃ Output Shape      ┃    Param # ┃ Connected to      ┃
┡━━━━━━━━━━━━━━━━━━━━━╇━━━━━━━━━━━━━━━━━━━╇━━━━━━━━━━━━╇━━━━━━━━━━━━━━━━━━━┩
│ input_layer_2       │ (None, 16)        │          0 │ -                 │
│ (InputLayer)        │                   │            │                   │
├─────────────────────┼───────────────────┼────────────┼───────────────────┤
│ dense_3 (Dense)     │ (None, 256)       │      4,352 │ input_layer_2[0]… │
├─────────────────────┼───────────────────┼────────────┼───────────────────┤
│ input_layer_3       │ (None, 2)         │          0 │ -                 │
│ (InputLayer)        │                   │            │                   │
├─────────────────────┼───────────────────┼────────────┼───────────────────┤
│ concatenate_1       │ (None, 258)       │          0 │ dense_3[0][0],    │
│ (Concatenate)       │                   │            │ input_layer_3[0]… │
├─────────────────────┼───────────────────┼────────────┼───────────────────┤
│ dense_4 (Dense)     │ (None, 128)       │     33,152 │ concatenate_1[0]… │
├─────────────────────┼───────────────────┼────────────┼───────────────────┤
│ dense_5 (Dense)     │ (None, 1)         │        129 │ dense_4[0][0]     │
└─────────────────────┴───────────────────┴────────────┴───────────────────┘
 Total params: 37,633 (147.00 KB)
 Trainable params: 37,633 (147.00 KB)
 Non-trainable params: 0 (0.00 B)
Model: ""functional_2""
┏━━━━━━━━━━━━━━━━━━━━━┳━━━━━━━━━━━━━━━━━━━┳━━━━━━━━━━━━┳━━━━━━━━━━━━━━━━━━━┓
┃ Layer (type)        ┃ Output Shape      ┃    Param # ┃ Connected to      ┃
┡━━━━━━━━━━━━━━━━━━━━━╇━━━━━━━━━━━━━━━━━━━╇━━━━━━━━━━━━╇━━━━━━━━━━━━━━━━━━━┩
│ input_layer_4       │ (None, 9)         │          0 │ -                 │
│ (InputLayer)        │                   │            │                   │
├─────────────────────┼───────────────────┼────────────┼───────────────────┤
│ dense_6 (Dense)     │ (None, 256)       │      2,560 │ input_layer_4[0]… │
├─────────────────────┼───────────────────┼────────────┼───────────────────┤
│ input_layer_5       │ (None, 7)         │          0 │ -                 │
│ (InputLayer)        │                   │            │                   │
├─────────────────────┼───────────────────┼────────────┼───────────────────┤
│ concatenate_2       │ (None, 263)       │          0 │ dense_6[0][0],    │
│ (Concatenate)       │                   │            │ input_layer_5[0]… │
├─────────────────────┼───────────────────┼────────────┼───────────────────┤
│ dense_7 (Dense)     │ (None, 128)       │     33,792 │ concatenate_2[0]… │
├─────────────────────┼───────────────────┼────────────┼───────────────────┤
│ dense_8 (Dense)     │ (None, 1)         │        129 │ dense_7[0][0]     │
└─────────────────────┴───────────────────┴────────────┴───────────────────┘
 Total params: 36,481 (142.50 KB)
 Trainable params: 36,481 (142.50 KB)
 Non-trainable params: 0 (0.00 B)
Model: ""functional_3""
┏━━━━━━━━━━━━━━━━━━━━━┳━━━━━━━━━━━━━━━━━━━┳━━━━━━━━━━━━┳━━━━━━━━━━━━━━━━━━━┓
┃ Layer (type)        ┃ Output Shape      ┃    Param # ┃ Connected to      ┃
┡━━━━━━━━━━━━━━━━━━━━━╇━━━━━━━━━━━━━━━━━━━╇━━━━━━━━━━━━╇━━━━━━━━━━━━━━━━━━━┩
│ input_layer_6       │ (None, 8)         │          0 │ -                 │
│ (InputLayer)        │                   │            │                   │
├─────────────────────┼───────────────────┼────────────┼───────────────────┤
│ dense_9 (Dense)     │ (None, 256)       │      2,304 │ input_layer_6[0]… │
├─────────────────────┼───────────────────┼────────────┼───────────────────┤
│ input_layer_7       │ (None, 6)         │          0 │ -                 │
│ (InputLayer)        │                   │            │                   │
├─────────────────────┼───────────────────┼────────────┼───────────────────┤
│ concatenate_3       │ (None, 262)       │          0 │ dense_9[0][0],    │
│ (Concatenate)       │                   │            │ input_layer_7[0]… │
├─────────────────────┼───────────────────┼────────────┼───────────────────┤
│ dense_10 (Dense)    │ (None, 128)       │     33,664 │ concatenate_3[0]… │
├─────────────────────┼───────────────────┼────────────┼───────────────────┤
│ dense_11 (Dense)    │ (None, 1)         │        129 │ dense_10[0][0]    │
└─────────────────────┴───────────────────┴────────────┴───────────────────┘
 Total params: 36,097 (141.00 KB)
 Trainable params: 36,097 (141.00 KB)
 Non-trainable params: 0 (0.00 B)
Model: ""functional_4""
┏━━━━━━━━━━━━━━━━━━━━━┳━━━━━━━━━━━━━━━━━━━┳━━━━━━━━━━━━┳━━━━━━━━━━━━━━━━━━━┓
┃ Layer (type)        ┃ Output Shape      ┃    Param # ┃ Connected to      ┃
┡━━━━━━━━━━━━━━━━━━━━━╇━━━━━━━━━━━━━━━━━━━╇━━━━━━━━━━━━╇━━━━━━━━━━━━━━━━━━━┩
│ input_layer_8       │ (None, 15)        │          0 │ -                 │
│ (InputLayer)        │                   │            │                   │
├─────────────────────┼───────────────────┼────────────┼───────────────────┤
│ dense_12 (Dense)    │ (None, 256)       │      4,096 │ input_layer_8[0]… │
├─────────────────────┼───────────────────┼────────────┼───────────────────┤
│ input_layer_9       │ (None, 6)         │          0 │ -                 │
│ (InputLayer)        │                   │            │                   │
├─────────────────────┼───────────────────┼────────────┼───────────────────┤
│ concatenate_4       │ (None, 262)       │          0 │ dense_12[0][0],   │
│ (Concatenate)       │                   │            │ input_layer_9[0]… │
├─────────────────────┼───────────────────┼────────────┼───────────────────┤
│ dense_13 (Dense)    │ (None, 128)       │     33,664 │ concatenate_4[0]… │
├─────────────────────┼───────────────────┼────────────┼───────────────────┤
│ dense_14 (Dense)    │ (None, 1)         │        129 │ dense_13[0][0]    │
└─────────────────────┴───────────────────┴────────────┴───────────────────┘
 Total params: 37,889 (148.00 KB)
 Trainable params: 37,889 (148.00 KB)
 Non-trainable params: 0 (0.00 B)
Model: ""functional_5""
┏━━━━━━━━━━━━━━━━━━━━━┳━━━━━━━━━━━━━━━━━━━┳━━━━━━━━━━━━┳━━━━━━━━━━━━━━━━━━━┓
┃ Layer (type)        ┃ Output Shape      ┃    Param # ┃ Connected to      ┃
┡━━━━━━━━━━━━━━━━━━━━━╇━━━━━━━━━━━━━━━━━━━╇━━━━━━━━━━━━╇━━━━━━━━━━━━━━━━━━━┩
│ input_layer_10      │ (None, 7)         │          0 │ -                 │
│ (InputLayer)        │                   │            │                   │
├─────────────────────┼───────────────────┼────────────┼───────────────────┤
│ dense_15 (Dense)    │ (None, 256)       │      2,048 │ input_layer_10[0… │
├─────────────────────┼───────────────────┼────────────┼───────────────────┤
│ input_layer_11      │ (None, 10)        │          0 │ -                 │
│ (InputLayer)        │                   │            │                   │
├─────────────────────┼───────────────────┼────────────┼───────────────────┤
│ concatenate_5       │ (None, 266)       │          0 │ dense_15[0][0],   │
│ (Concatenate)       │                   │            │ input_layer_11[0… │
├─────────────────────┼───────────────────┼────────────┼───────────────────┤
│ dense_16 (Dense)    │ (None, 128)       │     34,176 │ concatenate_5[0]… │
├─────────────────────┼───────────────────┼────────────┼───────────────────┤
│ dense_17 (Dense)    │ (None, 1)         │        129 │ dense_16[0][0]    │
└─────────────────────┴───────────────────┴────────────┴───────────────────┘
 Total params: 36,353 (142.00 KB)
 Trainable params: 36,353 (142.00 KB)
 Non-trainable params: 0 (0.00 B)
Model: ""functional_6""
┏━━━━━━━━━━━━━━━━━━━━━┳━━━━━━━━━━━━━━━━━━━┳━━━━━━━━━━━━┳━━━━━━━━━━━━━━━━━━━┓
┃ Layer (type)        ┃ Output Shape      ┃    Param # ┃ Connected to      ┃
┡━━━━━━━━━━━━━━━━━━━━━╇━━━━━━━━━━━━━━━━━━━╇━━━━━━━━━━━━╇━━━━━━━━━━━━━━━━━━━┩
│ input_layer_12      │ (None, 19)        │          0 │ -                 │
│ (InputLayer)        │                   │            │                   │
├─────────────────────┼───────────────────┼────────────┼───────────────────┤
│ dense_18 (Dense)    │ (None, 256)       │      5,120 │ input_layer_12[0… │
├─────────────────────┼───────────────────┼────────────┼───────────────────┤
│ input_layer_13      │ (None, 7)         │          0 │ -                 │
│ (InputLayer)        │                   │            │                   │
├─────────────────────┼───────────────────┼────────────┼───────────────────┤
│ concatenate_6       │ (None, 263)       │          0 │ dense_18[0][0],   │
│ (Concatenate)       │                   │            │ input_layer_13[0… │
├─────────────────────┼───────────────────┼────────────┼───────────────────┤
│ dense_19 (Dense)    │ (None, 128)       │     33,792 │ concatenate_6[0]… │
├─────────────────────┼───────────────────┼────────────┼───────────────────┤
│ dense_20 (Dense)    │ (None, 1)         │        129 │ dense_19[0][0]    │
└─────────────────────┴───────────────────┴────────────┴───────────────────┘
 Total params: 39,041 (152.50 KB)
 Trainable params: 39,041 (152.50 KB)
 Non-trainable params: 0 (0.00 B)
Model: ""functional_7""
┏━━━━━━━━━━━━━━━━━━━━━┳━━━━━━━━━━━━━━━━━━━┳━━━━━━━━━━━━┳━━━━━━━━━━━━━━━━━━━┓
┃ Layer (type)        ┃ Output Shape      ┃    Param # ┃ Connected to      ┃
┡━━━━━━━━━━━━━━━━━━━━━╇━━━━━━━━━━━━━━━━━━━╇━━━━━━━━━━━━╇━━━━━━━━━━━━━━━━━━━┩
│ input_layer_14      │ (None, 15)        │          0 │ -                 │
│ (InputLayer)        │                   │            │                   │
├─────────────────────┼───────────────────┼────────────┼───────────────────┤
│ dense_21 (Dense)    │ (None, 256)       │      4,096 │ input_layer_14[0… │
├─────────────────────┼───────────────────┼────────────┼───────────────────┤
│ input_layer_15      │ (None, 10)        │          0 │ -                 │
│ (InputLayer)        │                   │            │                   │
├─────────────────────┼───────────────────┼────────────┼───────────────────┤
│ concatenate_7       │ (None, 266)       │          0 │ dense_21[0][0],   │
│ (Concatenate)       │                   │            │ input_layer_15[0… │
├─────────────────────┼───────────────────┼────────────┼───────────────────┤
│ dense_22 (Dense)    │ (None, 128)       │     34,176 │ concatenate_7[0]… │
├─────────────────────┼───────────────────┼────────────┼───────────────────┤
│ dense_23 (Dense)    │ (None, 1)         │        129 │ dense_22[0][0]    │
└─────────────────────┴───────────────────┴────────────┴───────────────────┘
 Total params: 38,401 (150.00 KB)
 Trainable params: 38,401 (150.00 KB)
 Non-trainable params: 0 (0.00 B)
Model: ""functional_8""
┏━━━━━━━━━━━━━━━━━━━━━┳━━━━━━━━━━━━━━━━━━━┳━━━━━━━━━━━━┳━━━━━━━━━━━━━━━━━━━┓
┃ Layer (type)        ┃ Output Shape      ┃    Param # ┃ Connected to      ┃
┡━━━━━━━━━━━━━━━━━━━━━╇━━━━━━━━━━━━━━━━━━━╇━━━━━━━━━━━━╇━━━━━━━━━━━━━━━━━━━┩
│ input_layer_16      │ (None, 5)         │          0 │ -                 │
│ (InputLayer)        │                   │            │                   │
├─────────────────────┼───────────────────┼────────────┼───────────────────┤
│ dense_24 (Dense)    │ (None, 256)       │      1,536 │ input_layer_16[0… │
├─────────────────────┼───────────────────┼────────────┼───────────────────┤
│ input_layer_17      │ (None, 8)         │          0 │ -                 │
│ (InputLayer)        │                   │            │                   │
├─────────────────────┼───────────────────┼────────────┼───────────────────┤
│ concatenate_8       │ (None, 264)       │          0 │ dense_24[0][0],   │
│ (Concatenate)       │                   │            │ input_layer_17[0… │
├─────────────────────┼───────────────────┼────────────┼───────────────────┤
│ dense_25 (Dense)    │ (None, 128)       │     33,920 │ concatenate_8[0]… │
├─────────────────────┼───────────────────┼────────────┼───────────────────┤
│ dense_26 (Dense)    │ (None, 1)         │        129 │ dense_25[0][0]    │
└─────────────────────┴───────────────────┴────────────┴───────────────────┘
 Total params: 35,585 (139.00 KB)
 Trainable params: 35,585 (139.00 KB)
 Non-trainable params: 0 (0.00 B)
Model: ""functional_9""
┏━━━━━━━━━━━━━━━━━━━━━┳━━━━━━━━━━━━━━━━━━━┳━━━━━━━━━━━━┳━━━━━━━━━━━━━━━━━━━┓
┃ Layer (type)        ┃ Output Shape      ┃    Param # ┃ Connected to      ┃
┡━━━━━━━━━━━━━━━━━━━━━╇━━━━━━━━━━━━━━━━━━━╇━━━━━━━━━━━━╇━━━━━━━━━━━━━━━━━━━┩
│ input_layer_18      │ (None, 20)        │          0 │ -                 │
│ (InputLayer)        │                   │            │                   │
├─────────────────────┼───────────────────┼────────────┼───────────────────┤
│ dense_27 (Dense)    │ (None, 256)       │      5,376 │ input_layer_18[0… │
├─────────────────────┼───────────────────┼────────────┼───────────────────┤
│ input_layer_19      │ (None, 3)         │          0 │ -                 │
│ (InputLayer)        │                   │            │                   │
├─────────────────────┼───────────────────┼────────────┼───────────────────┤
│ concatenate_9       │ (None, 259)       │          0 │ dense_27[0][0],   │
│ (Concatenate)       │                   │            │ input_layer_19[0… │
├─────────────────────┼───────────────────┼────────────┼───────────────────┤
│ dense_28 (Dense)    │ (None, 128)       │     33,280 │ concatenate_9[0]… │
├─────────────────────┼───────────────────┼────────────┼───────────────────┤
│ dense_29 (Dense)    │ (None, 1)         │        129 │ dense_28[0][0]    │
└─────────────────────┴───────────────────┴────────────┴───────────────────┘
 Total params: 38,785 (151.50 KB)
 Trainable params: 38,785 (151.50 KB)
 Non-trainable params: 0 (0.00 B)
Model: ""functional_10""
┏━━━━━━━━━━━━━━━━━━━━━┳━━━━━━━━━━━━━━━━━━━┳━━━━━━━━━━━━┳━━━━━━━━━━━━━━━━━━━┓
┃ Layer (type)        ┃ Output Shape      ┃    Param # ┃ Connected to      ┃
┡━━━━━━━━━━━━━━━━━━━━━╇━━━━━━━━━━━━━━━━━━━╇━━━━━━━━━━━━╇━━━━━━━━━━━━━━━━━━━┩
│ input_layer_20      │ (None, 17)        │          0 │ -                 │
│ (InputLayer)        │                   │            │                   │
├─────────────────────┼───────────────────┼────────────┼───────────────────┤
│ dense_30 (Dense)    │ (None, 256)       │      4,608 │ input_layer_20[0… │
├─────────────────────┼───────────────────┼────────────┼───────────────────┤
│ input_layer_21      │ (None, 10)        │          0 │ -                 │
│ (InputLayer)        │                   │            │                   │
├─────────────────────┼───────────────────┼────────────┼───────────────────┤
│ concatenate_10      │ (None, 266)       │          0 │ dense_30[0][0],   │
│ (Concatenate)       │                   │            │ input_layer_21[0… │
├─────────────────────┼───────────────────┼────────────┼───────────────────┤
│ dense_31 (Dense)    │ (None, 128)       │     34,176 │ concatenate_10[0… │
├─────────────────────┼───────────────────┼────────────┼────────────…[truncated]; stderr=WARNING: All log messages before absl::InitializeLog() is called are written to STDERR
I0000 00:00:1784589582.974978  272951 cudart_stub.cc:31] Could not find cuda drivers on your machine, GPU will not be used.
I0000 00:00:1784589583.023203  272951 cpu_feature_guard.cc:227] This TensorFlow binary is optimized to use available CPU instructions in performance-critical operations.
…
